train_res_400_epochs.pth (torch, 34455 bytes, 5 tensors)

conv1.weight f4 [64, 1, 9, 9]
00000000: 9ae8 28bc 3025 4bbd f578 a73c eb90 6a3e
00000010: 5c41 973d 4d17 293e f485 bfbc c102 cbbd
00000020: c33d f33d 8b69 f3bd f90e cabc ebd5 babd
00000030: e263 0fbe ec81 26be d5e1 6abe 2b92 33bd
00000040: 6b15 d9bd 2040 64bd 6e0a 9c3d f48f 803c
00000050: be75 8f3d c50b d4bc bc87 4cbd 15a3 4bbd
00000060: 538a 333e 5624 f23d 76f4 703c 374a a63d
00000070: 3827 91bd 8469 7abc 50f4 233d e7f9 a7bc
00000080: 53a9 4dbe 2355 45bd 6358 0cbd ac09 f73d
00000090: 0e5c d8bd 9b44 afbd a015 5e3e 6c1a f23d
000000a0: b52c cebd 32ed 03be 5bf6 59bd 0a70 8ebc
000000b0: ca49 cd3d 8c27 7fbd 149b 36be 1e02 a13e
000000c0: 94e5 9e3e db66 063e 8989 883d bc80 f33d
000000d0: 7ebc 0cbe d4f4 a23d 0ac1 a13d 8689 4ebd
000000e0: 3134 c33e f3ca 9a3e fcea 8c3e 5870 ec3d
000000f0: 5e78 303d 1ea5 95bd 07ea 043e 9c80 71bd
00000100: 7936 9cbe c6ad febd 0e78 19be a0e8 9fbe
00000110: 495e 2abd 5cd1 d1bd 9683 c0bc dacc 8e3d
00000120: 5da0 973d 3b94 95bd 656c c03d e187 3b3d
00000130: 84e4 b8bd ed06 a13d ef86 3a3d 7a29 e53a
00000140: 861d a3bc 09c3 833d 8ea8 63bd d141 a6bd
00000150: 19eb 023e 32eb e73d 4af4 173d 8b93 103d
00000160: caee 7b3c fdd6 d53d 1b4e 08be d8ea 74bd
00000170: 5a43 c6bd 5787 72bd e92f ac3c d11b 78bd
00000180: 95c4 e0bd 8b06 6bbe 195c 94bd 9f7f 223d
00000190: 2e8c 8e3d 7758 39bc eb27 133e b89c 7f3d
000001a0: 2e3c 0e3e 1b12 913d 78f3 033d 0e35 07be
000001b0: f485 333d 6ff9 013e f3c9 fd3d c7ea a93e
000001c0: 1998 c93e b6b4 443e ffe3 5ebd 1429 9e3d
000001d0: f2ea ae39 3d63 ea3c 72e1 913e 24aa 783e
000001e0: 3b12 4e3e 026d 4d3e f34a c2bd 0045 adbb
000001f0: eb18 383d 8630 bb3d dc99 f6bd f7b4 233d
00000200: a8f2 91bc e012 9abd 0ee1 09be 90ef 71be
00000210: e8d6 a8be 2d36 1bbd 4486 a03d f07e 21be
00000220: d0c1 18bd 4ca9 30bd e99e 44be 08b2 9cbe
00000230: d2b4 f7be 3cb2 0fbf 6655 42be dd0c f6bd
00000240: 9940 0bbe 75f6 883d 6c61 17be 4c4b 183c
00000250: a7a0 f1bd 90e4 75bd 43a3 bdbd 8061 623e
00000260: 5306 623d 4c9b 4e3c 6b21 b0bb 2030 35bd
00000270: 7981 313e 7f87 8e3e a7d7 533e 4d4e 343e
00000280: dc33 2f3e 2429 5e3c 7062 91bd b8a7 a13d
00000290: c83c 34bd 0555 833b c376 adbd ec7e a3bd
000002a0: 5d54 7d3d e793 62bd 628b ec3c dc14 babd
000002b0: 29ba 60bd 83ba 843d 6be6 85bc da57 0f3c
000002c0: 6ce0 3cbc 0766 4d3d abf8 03bd 0e3a a43d
000002d0: bd83 753d 833f bfbc c5f3 adbd 5918 8a3b
000002e0: 1705 d33d 78bf 9ebd f405 eebc 09e0 723c
000002f0: 7082 9ebc d6a4 0ebd 1be3 05bd 9032 803d
00000300: ac23 d7bd 3972 a0bd c875 853d 1d0f dfbd
00000310: f03a cfbc 41d6 833d 8280 c03d 3e79 a93c
00000320: b8b2 0ebd 643e 693d e99a 863c 759d 433c
00000330: f910 0dbd 0dfe a3bd cb28 6a3c e6d7 193d
00000340: 8083 84bd 8886 0ebc 5466 4b3d ee96 4cbd
00000350: 81bc 463d 059c 8d3d 29b7 9abd fecf b53c
00000360: 9789 28bc 674d d53c f5dd 063d 9a3b 02bd
00000370: 451b 9a3d 59b7 ffba 2d44 abbd db00 a8bd
00000380: 1f3b 7f3d c179 78bd 12cb 99bd 6ac4 f4bb
00000390: 91ad d2b7 d0dd ea3c 2b51 a6bd e1d2 6e3a
000003a0: b87a 4bbc d7a4 cbbc b7ff 943d dde0 25bc
000003b0: 1437 083c 14c8 8b3c 5442 d73d 5dda 12bc
000003c0: 51e2 94bd fef9 113d e516 a4bd 2523 38bc
000003d0: 143e 373d 4716 e3bd ee44 10be a138 33bd
000003e0: 4d7b 70bc 90fb 82bd 21ff 833d 3df1 60be
000003f0: 54c5 423d 65e2 64bc 7f93 cfbb fe24 6e3c
-0.010309363 -0.04959601 0.020443419 0.22906844 0.07385513 0.16512795 -0.023379304 -0.09912635
0.118770145 -0.11885365 -0.024665343 -0.09122833 -0.14002946 -0.16260499 -0.2293771 -0.04384057
-0.10599788 -0.055725217 0.07619177 0.015693642 0.070048794 -0.025884518 -0.049934134 -0.049716074
0.17533235 0.11823337 0.0147067215 0.08119624 -0.070875585 -0.015283946 0.040027916 -0.020504905
-0.20084123 -0.048176896 -0.03426398 0.12062392 -0.10564433 -0.08558007 0.21687937 0.11821446
-0.10067121 -0.12883452 -0.05321346 -0.017387409 0.1002384 -0.062293574 -0.17832595 0.31446928
0.3103453 0.13125174 0.06666858 0.118897885 -0.13743779 0.079568535 0.078981474 -0.05042412
0.38125756 0.30232963 0.2752303 0.11544865 0.04308354 -0.07306884 0.129799 -0.058960542
-0.3051031 -0.124354884 -0.14987203 -0.31232166 -0.041593824 -0.1024501 -0.023500245 0.06972666
0.07403634 -0.07303663 0.093956746 0.04578388 -0.09027961 0.07862649 0.04553884 0.0017483674
-0.019911539 0.064336844 -0.05558067 -0.08118022 0.12784995 0.11324157 0.037098207 0.035296958
0.015376756 0.104413964 -0.13311045 -0.059794277 -0.09680815 -0.0592111 0.02101894 -0.060573403
-0.10974995 -0.22951715 -0.07244129 0.03967249 0.06960331 -0.011312596 0.14370696 0.062405318
0.13890144 0.070835315 0.03221461 -0.13203833 0.04382892 0.12692808 0.123920344 0.33186933
0.39373854 0.19209561 -0.054416653 0.07722679 0.00033362914 0.028611774 0.28492314 0.24283653
0.20124142 0.20061114 -0.09486952 -0.0052877665 0.04494564 0.091401145 -0.12041065 0.039967503
-0.017815903 -0.07523131 -0.13464758 -0.23626542 -0.3297646 -0.037893463 0.07838109 -0.15771079
-0.03729421 -0.043130204 -0.19201244 -0.30604577 -0.48380142 -0.5613134 -0.1897789 -0.12014172
-0.13598861 0.06687633 -0.14783257 0.009295296 -0.1179822 -0.060032427 -0.09259655 0.22107506
0.055181812 0.012610268 -0.0053750775 -0.04423535 0.17334546 0.2783775 0.20687734 0.17607994
0.17109627 0.013559613 -0.070988536 0.07893318 -0.044003278 0.004007938 -0.084699176 -0.07983193
0.061848033 -0.055316832 0.028875057 -0.0908601 -0.054865036 0.06480887 -0.016345223 0.008748973
-0.011528116 0.05014613 -0.03221957 0.080188856 0.05994009 -0.023345714 -0.08493761 0.0042143282
0.10303705 -0.077513635 -0.029055573 0.014823922 -0.019349307 -0.03482517 -0.032687288 0.06259644
-0.10504851 -0.07834286 0.065166056 -0.108915545 -0.025296658 0.0643735 0.09399511 0.020687696
-0.03483841 0.056944266 0.016431289 0.011939396 -0.034440015 -0.08007441 0.014291952 0.037559412
-0.06470394 -0.008699067 0.049658135 -0.049948625 0.048519615 0.06914524 -0.07554466 0.022193905
-0.01028671 0.026037885 0.03292652 -0.03179512 0.075247325 -0.0019509598 -0.08362613 -0.08203288
0.06231224 -0.06066299 -0.07509436 -0.0074697034 -2.5114774e-05 0.028670222 -0.0812095 0.0009110403
-0.012419395 -0.024858875 0.07275336 -0.010124412 0.008313913 0.017063178 0.10510698 -0.008963195
-0.07269729 0.0356388 -0.08012179 -0.011238848 0.044736937 -0.110882334 -0.14088795 -0.043755177
-0.014677835 -0.06395638 0.06445146 -0.21967025 0.047551468 -0.013969992 -0.0063347216 0.014535187

conv1.bias f4 [64]
00000000: 0c38 063e c80b b8bd 1ec1 c3bd 94ef 7abc
00000010: 8d64 393c 4169 4abd 24fa 9fbd 325e d53c
00000020: cec4 27bd 2f63 703c b9a6 6f3d 42fa cbbd
00000030: d9ef 3c3d 268c f2bc d6a6 1abd bdd6 213e
00000040: f8a6 dfbd 5504 a9bd 5517 56bd e01a 38bd
00000050: b488 c63c 0d96 a2bd cf26 663c c61f 32bd
00000060: 6ba8 c03c 5413 99bd 3e4f ddbc ec8d b83c
00000070: 9892 9f3d a466 8f3d 0d8a a7ba 3b8f a5bc
00000080: 2161 c13c 8571 46bd 866e a3bc e5ac 95bd
00000090: 4d0c 223d 7a77 99bd 6e24 c93c 6510 0abc
000000a0: b2a9 66bc 463b cb3a 45a3 c6bc aa3b c5bb
000000b0: 219f b5bc 8279 79bd 0e75 203d 6441 1ebd
000000c0: bf0b e43b 9ee6 ff3c d951 15bd 4e83 013e
000000d0: fb08 43bd e009 8a3a 5134 ffbb ee1c 9bbd
000000e0: d8e3 3dbc b3ae e2bc 0eb6 9dbd 05bd a6bd
000000f0: 51a7 0c3a 4856 0d3d 80a6 bdbc 383f f1bc
0.13107318 -0.08986622 -0.095583186 -0.015315909 0.011315477 -0.049416784 -0.078113824 0.026045892
-0.040959172 0.014672085 0.05850861 -0.09959842 0.046127174 -0.029607844 -0.037756763 0.15804572
-0.10920519 -0.082527794 -0.052268345 -0.044947505 0.024235107 -0.07938776 0.014047339 -0.043487333
0.023517808 -0.0747439 -0.027015325 0.022528611 0.077916324 0.07001999 -0.0012782231 -0.0202099
0.023605885 -0.048448104 -0.019950163 -0.07308368 0.039562512 -0.074934915 0.024553504 -0.00842676
-0.014078544 0.0015505336 -0.024247775 -0.0060190754 -0.022170605 -0.060906895 0.039174132 -0.03863658
0.006959408 0.031237897 -0.03645501 0.12647745 -0.047615986 0.0010531507 -0.007788219 -0.07573877
-0.011589967 -0.027671194 -0.0770074 -0.08141521 0.0005365508 0.034506112 -0.023150682 -0.02944909

conv2.weight f4 [32, 64, 1, 1]
00000000: 037e 6e3d b7eb 363d 397d 8a3d b6c6 963e
00000010: 2feb b13c 8864 8e3e b1e2 64be 2b20 ab3e
00000020: d0d2 b1be c999 893f 1522 a5bd 8f0d 4cbd
00000030: de47 723b 058c 25bd 5701 e7bc 59c0 b73d
00000040: e9d3 2cbe 31d9 90bd a842 d33d 0026 d53d
00000050: 76c3 a03c 3ada 73bd 1d3e 403d 680d 913d
00000060: e0fb 98bb 8dc7 463b e188 613d 3c85 a83c
00000070: 8575 0f3d b0ea 43be 23e9 4ebd 4fd0 1c3d
00000080: 42f1 a2bd d47e fd3d da40 2bbe cdb2 ce3d
00000090: 12ac 16bb 7429 5c3d e9c4 8c3d 9302 b93d
000000a0: 63fd ca3c fe67 dd3c e403 cb3e b13d fbbc
000000b0: 9db1 8cbe 653f bfbd 6942 a1be bd35 c1bd
000000c0: 97c4 903e 014b fcbb ba71 5bbe 8e73 acbb
000000d0: 824e 5d3e 4d34 333d 4bc2 0c3d c6fd 25bd
000000e0: 07a8 aebd 8c2a 593e 0473 64bd 8f72 c9bd
000000f0: bd81 003e 1799 e83b e55d 803e 8df8 cbbc
00000100: 7051 4abd 20e9 4a3e 3ffe 26bd 0491 c2be
00000110: 93cd 37be ed4e 933e 9933 6dbd 89b9 6abd
00000120: 9d80 d13d 16dc 98be db32 6ebc 7868 ee3d
00000130: d486 043d 99f7 c1bd 0db1 cc3d 0c8a 19be
00000140: 31a9 213e 0d31 5c3d 2962 5dbd de2d f43d
00000150: d3fa 81bd 1720 cf3b b9b9 ca3d 91f9 c63c
00000160: 9883 f03d 25b6 a23c b6c1 61bd 9161 413d
00000170: a95d 3a3e 1f28 b83d 65eb 96bc cbb0 273e
00000180: 43cb 33be f5d5 d83c bf41 32be 91b3 a63c
00000190: 0ba3 dabc e85c 23bd 5211 7ebd bd4e 863e
000001a0: edd1 c5bd 855a b0bd 31b8 323f 508f a0bd
000001b0: fcec 2ebc c817 e33d fd09 88bd dc22 5bbd
000001c0: a269 87bd dd77 a8bc d7b5 483c 90cb b23d
000001d0: 4b30 123e ea21 773d 3420 123e 63e5 d43d
000001e0: 103b 163e b5a8 1a3d 553f 1dbe 6af4 92bd
000001f0: c10b aa3d e0ca b03d 3f09 993e a0d8 afbd
00000200: 7fb7 f9bd e2c4 84bd 4098 fbbb 641a 5f3e
00000210: ae71 ff3e 3fd5 a63e 9385 41bc d130 903e
00000220: 8468 ebbe e563 2dbd 6ea0 b3be c3c7 ea3d
00000230: bd1c 8a3d 5321 673e b9c2 1f3e 78d3 a83c
00000240: bc9d a7bd 6815 b73d 564b bd3e 143a 8fbd
00000250: e54b 543c 1178 08bc c808 e53d 0e5a 563d
00000260: 1825 763d 92b9 f9bc c3c2 413e 918f 723e
00000270: 0679 92bd 9b88 f7bd 2e45 0c3f 0df8 adbc
00000280: 2fe1 f1bd a669 18bd cfd6 153d 6a37 9d3d
00000290: 6d9d 59be 00fe a03a 121e 10be 017d 51bf
000002a0: ee19 4ebc f20a 863d 5288 e9be 00d3 2a3d
000002b0: 02f3 82be 5963 b83b 24bd 6d3e 1fb1 4dbd
000002c0: dc94 a93e 37af 44be d882 cbbe 3833 91be
000002d0: 2f49 aebe ad0c 1e3e 1d93 87be b24e 123e
000002e0: 6e5a b73c c1dd c13e 1cc9 473d c237 91bd
000002f0: ec10 063d a46d 613d 7a13 debd 3c3c fd3d
00000300: 0281 babe 2d9d f53d 24a0 12bd e8de a1be
00000310: 410f 843e c711 37bf 5cd7 23bd afc7 573e
00000320: 4be1 8fbe 46da 2a3e 1df4 4dbd 4a85 4cbd
00000330: 067e 913d 35ab 5dbf b443 bf3d ecef 7ebd
00000340: 8e07 7dbd 76d0 d5bd 8b16 5dbc 629b ffbd
00000350: e556 723c 9a1e 63be 992e ccbd 16bc 30be
00000360: a004 8a3d 28f6 053e 8ad1 20be 2c19 723c
00000370: f9f3 1f3e 3698 84bd 23da 713d 99fa be3e
00000380: ccb8 86bd e2a4 93bc 1ffa 7cbf 997e 0c3e
00000390: 90f5 103e 3240 e1bd d026 db3e cac1 a8be
000003a0: 5943 06be 9aff 873d 70a5 4a3e 2f8a e3bd
000003b0: d258 aa3d b124 e9bc 4d64 a43e 0336 b2bd
000003c0: 5dd3 63be 114b 963d 1d96 87bd c527 dabd
000003d0: fb43 093d 94d8 fc3d c645 3c3c 0312 a5bd
000003e0: 744b 493d 0f01 1d3f b44a 2cbd 1717 543d
000003f0: fcf5 603d 8776 17bd 9898 743c 85c0 1abe
0.058225643 0.04465839 0.067621656 0.2944848 0.02171859 0.27811074 -0.22352101 0.3342298
-0.3473115 1.0750057 -0.08063141 -0.049817618 0.0036969106 -0.040416736 -0.028198881 0.08972234
-0.16877712 -0.07072676 0.10315448 0.104076385 0.019624453 -0.05953429 0.046934236 0.07082635
-0.0046686977 0.0030331344 0.05506218 0.020571344 0.035024185 -0.19132495 -0.050515305 0.038284596
-0.079561725 0.12377706 -0.16723958 0.10092697 -0.0022990745 0.05375047 0.06873495 0.09033694
0.024779027 0.027027126 0.39651406 -0.030669065 -0.27479258 -0.093382634 -0.3149598 -0.09434078
0.28274986 -0.007699371 -0.21430102 -0.0052627986 0.2161198 0.04375105 0.03436498 -0.04052522
-0.085281424 0.21207637 -0.05577375 -0.098363034 0.12549491 0.007098328 0.25071636 -0.024898792
-0.04939407 0.19815493 -0.04076981 -0.38001263 -0.17949514 0.28771153 -0.057910535 -0.057305846
0.10229609 -0.29855412 -0.014538492 0.116410196 0.032355145 -0.09471054 0.09994707 -0.14994067
0.15787198 0.053757716 -0.05404869 0.11922811 -0.06346669 0.006320964 0.09898705 0.024288924
0.117438495 0.019862244 -0.055116378 0.047212187 0.18199791 0.089920275 -0.018422792 0.16376035
-0.17558007 0.02646921 -0.17407893 0.020349296 -0.026689073 -0.039883524 -0.062028237 0.26231948
-0.09659181 -0.08611015 0.69812304 -0.07839835 -0.010676619 0.1108852 -0.0664253 -0.05350004
-0.06611945 -0.020564968 0.012250385 0.08730233 0.14276235 0.060335077 0.14270097 0.103953145
0.14670968 0.037758548 -0.1535619 -0.071755245 0.08303023 0.08632445 0.29889867 -0.0858624
-0.12193202 -0.06482865 -0.0076780617 0.21787411 0.49891418 0.3258457 -0.011811632 0.28162244
-0.45978177 -0.042331595 -0.35083336 0.11463883 0.06743763 0.22571306 0.15601625 0.020608649
-0.08184382 0.0893963 0.3697154 -0.069934994 0.012957548 -0.008329407 0.111833155 0.052331977
0.06009397 -0.030483995 0.18921952 0.23687579 -0.0715199 -0.12086602 0.5479306 -0.021236444
-0.118105285 -0.03721013 0.03658181 0.07676585 -0.2125146 0.0012282729 -0.14073971 -0.81831366
-0.012579424 0.065450564 -0.45611817 0.04170513 -0.25576025 0.0056270775 0.23216683 -0.050217744
0.33121383 -0.19207464 -0.39748263 -0.2835939 -0.3404021 0.15434523 -0.26479426 0.14287832
0.022381987 0.37864497 0.048775777 -0.07090713 0.03273098 0.055036202 -0.108435586 0.123650044
-0.3642655 0.119928695 -0.035797253 -0.31615376 0.25792888 -0.715115 -0.040000305 0.21072267
-0.28101572 0.16684827 -0.050281633 -0.0499318 0.07104115 -0.86589366 0.09339085 -0.062240526
-0.061774783 -0.104401514 -0.013494144 -0.12480809 0.014791225 -0.22179642 -0.09969825 -0.17259249
0.067391634 0.13082182 -0.15704933 0.014776509 0.15620412 -0.064743444 0.059045922 0.37300566
-0.06578216 -0.018022958 -0.98819155 0.13720168 0.14156175 -0.109985724 0.4280305 -0.3296035
-0.13111629 0.06640549 0.19789672 -0.11110341 0.083177224 -0.028459879 0.32107773 -0.08701708
-0.22248597 0.073385365 -0.06620429 -0.10652117 0.033512097 0.123459965 0.011491245 -0.08060076
0.049144223 0.6132974 -0.04206343 0.051779833 0.05492209 -0.03697827 0.014928959 -0.15112503

conv2.bias f4 [32]
00000000: cff1 5f3d 5be5 a13c 2c63 3c3e e921 5a3d
00000010: ed10 fbbd 2967 3c3d 9b77 d3bd d5bb 8cbd
00000020: 352d fe3d de12 f2bd 74d7 eabc be01 4c3d
00000030: cbf0 b63b c347 13be c994 ab3e 746f 45bd
00000040: 55ae afbd 2054 83bd 9188 0a3c 6152 95ba
00000050: 864b 0fbe 8f41 c4bd 0415 bf3c c624 743d
00000060: e5f0 42bd 342b e9bd 6271 113d 9a00 18be
00000070: e1fe 1b3d e663 1c3d eb2e b9bc 5b8e 39bb
0.054673966 0.019762686 0.18397206 0.053254995 -0.12259088 0.04599682 -0.10325547 -0.068717636
0.12410966 -0.11820005 -0.02866719 0.04980635 0.005582904 -0.14382844 0.33511952 -0.048201993
-0.08578173 -0.0641253 0.0084554115 -0.0011392349 -0.13993654 -0.09582817 0.02332545 0.059605382
-0.047593016 -0.113851935 0.03550852 -0.1484398 0.03808487 0.038181208 -0.02260538 -0.002831361

conv3.weight f4 [1, 32, 5, 5]
00000000: 79db d8bd 8afb acba 5272 29bd 4621 7dbd
00000010: 8107 71bd 193c 1cbe ef6f 4cbe 18f0 14be
00000020: 6a8f c7bd 9f31 f7bd b8b6 b1bc b0cd 30bd
00000030: dcd2 26bd 9e87 de3c 909e 643c 6704 9c3d
00000040: d328 853d d8e9 ae3d 36f1 c93d 878f e73d
00000050: 601f 953d 57a4 7c3d 7c75 963d a826 aa3d
00000060: 5035 c63d 16d5 c13d 6da3 823d 235a e8bb
00000070: 7e06 dabd a67a 02bd 888c 69bc ed6e d93d
00000080: d029 833d 897a 0a3c 5236 243d 34d3 29bd
00000090: 2e79 8d3d f7c5 fcbb d59b 213c 7455 563c
000000a0: 5485 a2bd d119 ec3b 760f 3ebd 35e0 6b39
000000b0: 2ed1 1c3d 0b8b 48bd 0414 673c be42 67bd
000000c0: a167 58bd ff34 b8bc 412a fb3c 5870 d83d
000000d0: 57ea 153e f752 903d cf8e f53c 7991 af3c
000000e0: 1743 05be a1c8 96bd 1de8 16bd 5550 993d
000000f0: e8c4 ba3d 7eee 46be de38 81be e538 efbd
00000100: c666 1a3e 6f18 3d3d 5407 0bbe 7c61 13be
00000110: 5723 a5bd 9cb3 c63d 343b 8e3d 227e 713d
00000120: 7ab5 1c3e a86d 913d da0c d83c 08d8 933d
00000130: 7127 6abd 3464 4dbb 7e87 383b 2f2e 27be
00000140: 24b1 0fbd 9e7c 9bbd 1319 26bd e043 333d
00000150: 908c c13a e9c5 173c 5583 073d 49a4 0ebd
00000160: 181c c0bc 79cf 993d 0f4c 0d3b 1b6b a5bc
00000170: 984e f1bd db50 eabd 8f17 213d 8ce9 96bc
00000180: 825a 5cbd fa8f cdbb 9ef2 b73c 2cb4 6d3a
00000190: 0cc1 97bc a28d a6bd 5e9e e5bd e0eb 44bd
000001a0: ce94 b1bc 588d 9d3d abb2 a8bd 27e2 debd
000001b0: c392 133c 1afb 3ebd af3d 383e 5ffd fcbd
000001c0: a03e 8cbe 72fb 1dbd 2458 0bbd ec4c ef3c
000001d0: ab2f 123d f5b7 09be 6126 09be 795e 37bd
000001e0: 882b b3bd 5198 933d 200e 1f3e c6a2 6e3d
000001f0: 5c9b 8b3c fe12 44bc 43e4 53bd 3086 52bc
00000200: 748c bdbb 173c b9bb 842f 213d b799 b63c
00000210: 2536 97bb 91b8 6bbd feb8 9abc 1ce1 963c
00000220: ae73 893d b015 c3bb 9639 b2bd d181 b9bc
00000230: ee74 993c 050d 553d 4627 ebbc eddb 75bd
00000240: ac94 11bd 1acb 72bd f163 6a3d 57fb 113d
00000250: b177 6d3d cea8 fe3c 594b 223d 03cf bb3d
00000260: 56bf b0bd bf8b 823d d270 ec3d c80c 82bd
00000270: f5ca e93d fae3 533c 1aa6 353e 7805 473d
00000280: 514a 47be 0ba6 b03c e2e3 4bbc 0198 ae3c
00000290: f295 cebd a238 25be 2b7e 5e3d 8a96 ca3d
000002a0: 67f9 5e3d 632a 15be 22cb c8bd bf26 343e
000002b0: 5b32 273e d14b 50bd 3d2b 1bbd b424 cdb8
000002c0: 251d a23b abd0 49bd e0a6 70bd 0cad 183d
000002d0: f991 cd3c 6844 b83d f155 ecbb 6e68 04be
000002e0: 6097 133e 1c2a e1bc 3fe3 183e bea2 4abc
000002f0: 57dd 3bbd 8b8d 043e 9e24 63bb 84f5 7fbd
00000300: 26d0 75bd 2f38 a23d e4e1 223d 299e 6abd
00000310: eb7c 62bd d8f9 933d 181b f7bc 0da2 cdbd
00000320: 9055 d73c c12e eb3d fd60 4bbd 2d2d bfbb
00000330: fa14 d63b aa25 143c 1891 bdbd 8f93 6d3d
00000340: d6eb 783d e608 b6bd 6c9b 44be 8f43 a4bd
00000350: f47a 673e ec43 b83d a058 b6bd 6b99 453c
00000360: 44a9 c33c a743 c43c ef95 a63c 89da 6c3c
00000370: 4e30 e13c 9a22 c93b 5057 f2bc 7627 513b
00000380: e8f2 a3bd 35cb 7dbd 8da4 8f3d d288 c63c
00000390: abb0 8f3c df6a 553c 6bcf ddbd 6269 c23d
000003a0: 9941 263e 7ebb 053e c7d7 b0bc 72d5 a9bc
000003b0: c475 3d3d 8055 043e e01e 243e 3244 d039
000003c0: 4984 48bc d764 a83d 4b48 b53d bef4 333d
000003d0: 6d50 a53d 4452 d43c 851e 09bc 47b8 84bd
000003e0: 8626 debd d94c 2cbd 2db1 63bd 7a4a ddbd
000003f0: abe7 d1bd 3a24 96bc dbf2 243d db62 4b3d
-0.10588736 -0.0013197523 -0.04136879 -0.06179931 -0.058845047 -0.152573 -0.19964574 -0.14544713
-0.09744151 -0.12070011 -0.021693572 -0.04316491 -0.040728435 0.027164277 0.01395382 0.07618027
0.06501927 0.08540696 0.098604605 0.113066725 0.07281375 0.061680164 0.07346627 0.08308154
0.09678137 0.09464471 0.06378827 -0.0070908233 -0.106457695 -0.031855248 -0.014254697 0.106168605
0.064044595 0.008452066 0.040090866 -0.041461185 0.06907879 -0.007714029 0.009863813 0.013081897
-0.079355866 0.007205226 -0.046401463 0.0002249487 0.038285427 -0.048960727 0.014103893 -0.056460135
-0.052833203 -0.022486208 0.030659797 0.10568303 0.14640175 0.07047074 0.029975323 0.021431671
-0.13013874 -0.07362486 -0.036842454 0.07486025 0.09119588 -0.19426915 -0.252387 -0.11680774
0.15078267 0.04616588 -0.13577014 -0.14392656 -0.08063381 0.097022265 0.06944886 0.05895818
0.15303603 0.071009934 0.026373316 0.07218939 -0.05716652 -0.0031340243 0.0028156932 -0.16326211
-0.035081044 -0.07592128 -0.040551256 0.043765903 0.0014766622 0.009263494 0.033084232 -0.034824643
-0.023450896 0.075102754 0.0021560227 -0.020192673 -0.11782569 -0.11441203 0.039329108 -0.01842191
-0.053797252 -0.006273267 0.022454556 0.000906768 -0.01852467 -0.08132483 -0.11211847 -0.04807651
-0.0216774 0.07692975 -0.08237203 -0.10882979 0.009007159 -0.046626188 0.1799228 -0.12353014
-0.2739153 -0.038569875 -0.034019604 0.029211484 0.03568999 -0.1344908 -0.13393547 -0.04476783
-0.08748537 0.072067864 0.15532732 0.0582607 0.017041855 -0.011967419 -0.05173136 -0.012849376
-0.0057845656 -0.005652915 0.039351955 0.022290094 -0.004614609 -0.057549063 -0.01888704 0.018417887
0.06711517 -0.005953513 -0.0870239 -0.02264491 0.018732514 0.05201437 -0.02870525 -0.06002419
-0.035542175 -0.059275724 0.057224218 0.035640087 0.057975475 0.031086352 0.03962264 0.09170344
-0.086302444 0.06374311 0.11544956 -0.06350094 0.11415664 0.012932772 0.17739144 0.0485892
-0.19461943 0.02156355 -0.012444468 0.021312715 -0.100871935 -0.16134885 0.054319542 0.09891994
0.054437067 -0.1456695 -0.098043695 0.17592905 0.16327803 -0.050853554 -0.037883032 -9.781998e-05
0.004947322 -0.049271267 -0.058752894 0.037274405 0.02509402 0.089974225 -0.0072123935 -0.12930462
0.14413214 -0.0274859 0.14930438 -0.012367902 -0.045865383 0.1294462 -0.0034659277 -0.06249
-0.06001296 0.079208724 0.039766207 -0.05727974 -0.055294912 0.07225388 -0.030164286 -0.10040674
0.026285917 0.11483527 -0.049653042 -0.005834243 0.0065332623 0.009042183 -0.0925619 0.05800205
0.060771786 -0.08888416 -0.19199914 -0.08020698 0.22605497 0.0899733 -0.089036226 0.0120605035
0.023884423 0.02395804 0.020335166 0.0144564 0.027488854 0.006138158 -0.02958265 0.003191439
-0.08005315 -0.06196137 0.070138074 0.024235163 0.017540297 0.013025968 -0.108305775 0.094927564
0.16235961 0.13059804 -0.021587266 -0.020731661 0.04625489 0.1292324 0.16027403 0.0003972366
-0.0122385705 0.08222359 0.088516794 0.043934576 0.080719806 0.025918134 -0.008369093 -0.064804606
-0.108471915 -0.042065475 -0.05558889 -0.10805221 -0.10249265 -0.018327821 0.040270668 0.049654823
